{
    "format": "layers-model",
    "generatedBy": "keras v3.11.3",
    "convertedBy": "TensorFlow.js Converter v4.22.0",
    "modelTopology": {
        "keras_version": "3.11.3",
        "backend": "tensorflow",
        "model_config": {
            "class_name": "Sequential",
            "config": {
                "name": "sequential",
                "trainable": true,
                "dtype": {
                    "module": "keras",
                    "class_name": "DTypePolicy",
                    "config": {
                        "name": "float32"
                    },
                    "registered_name": null
                },
                "layers": [
                    {
                        "class_name": "InputLayer",
                        "config": {
                            "batchInputShape": [
                                null,
                                24
                            ],
                            "dtype": "float32",
                            "sparse": false,
                            "ragged": false,
                            "name": "input_layer"
                        }
                    },
                    {
                        "class_name": "Dense",
                        "config": {
                            "name": "dense",
                            "trainable": true,
                            "dtype": {
                                "module": "keras",
                                "class_name": "DTypePolicy",
                                "config": {
                                    "name": "float32"
                                },
                                "registered_name": null
                            },
                            "units": 1024,
                            "activation": "relu",
                            "use_bias": true,
                            "kernel_initializer": {
                                "module": "keras.initializers",
                                "class_name": "GlorotUniform",
                                "config": {
                                    "seed": null
                                },
                                "registered_name": null
                            },
                            "bias_initializer": {
                                "module": "keras.initializers",
                                "class_name": "Zeros",
                                "config": {},
                                "registered_name": null
                            },
                            "kernel_regularizer": null,
                            "bias_regularizer": null,
                            "kernel_constraint": null,
                            "bias_constraint": null
                        }
                    },
                    {
                        "class_name": "Dense",
                        "config": {
                            "name": "dense_1",
                            "trainable": true,
                            "dtype": {
                                "module": "keras",
                                "class_name": "DTypePolicy",
                                "config": {
                                    "name": "float32"
                                },
                                "registered_name": null
                            },
                            "units": 3,
                            "activation": "linear",
                            "use_bias": true,
                            "kernel_initializer": {
                                "module": "keras.initializers",
                                "class_name": "GlorotUniform",
                                "config": {
                                    "seed": null
                                },
                                "registered_name": null
                            },
                            "bias_initializer": {
                                "module": "keras.initializers",
                                "class_name": "Zeros",
                                "config": {},
                                "registered_name": null
                            },
                            "kernel_regularizer": null,
                            "bias_regularizer": null,
                            "kernel_constraint": null,
                            "bias_constraint": null
                        }
                    }
                ],
                "build_input_shape": [
                    null,
                    24
                ]
            }
        }
    },
    "weightsManifest": [
        {
            "paths": [
                "group1-shard1of1.bin"
            ],
            "weights": [
                {
                    "name": "dense/kernel",
                    "shape": [
                        24,
                        1024
                    ],
                    "dtype": "float32"
                },
                {
                    "name": "dense/bias",
                    "shape": [
                        1024
                    ],
                    "dtype": "float32"
                },
                {
                    "name": "dense_1/kernel",
                    "shape": [
                        1024,
                        3
                    ],
                    "dtype": "float32"
                },
                {
                    "name": "dense_1/bias",
                    "shape": [
                        3
                    ],
                    "dtype": "float32"
                }
            ]
        }
    ]
}